…
using 3.5 cores on the Raspberry Pi, a machine that has only 4 cores. (You can think of
each core as a smaller computer.) This amounts to a very high CPU utilization of the

https://t.me/bookzillaaa - https://t.me/ThDrksdHckr

Raspberry Pi 3B+. The little Raspberry Pi consumes almost 3.8W while running our
neural network, up from about 1.5W normally.

You can see the complexity of our new network by looking at the
model.summary() results:
_________________________________________________________________
Layer (type) Output Shape Param #
=================================================================
conv2d (Conv2D) (None, 150, 150, 32) 896
_________________________________________________________________
max_pooling2d (MaxPooling2D) (None, 75, 75, 32) 0
_________________________________________________________________
conv2d_1 (Conv2D) (None, 75, 75, 32) 9248
_________________________________________________________________
max_pooling2d_1 (MaxPooling2 (None, 37, 37, 32) 0
_________________________________________________________________
conv2d_2 (Conv2D) (None, 37, 37, 64) 18496
_________________________________________________________________
max_pooling2d_2 (MaxPooling2 (None, 18, 18, 64) 0
_________________________________________________________________
dropout (Dropout) (None, 18, 18, 64) 0
_________________________________________________________________
flatten (Flatten) (None, 20736) 0
_________________________________________________________________
dense (Dense) (None, 64) 1327168
_________________________________________________________________
dropout_1 (Dropout) (None, 64) 0
_________________________________________________________________
dense_1 (Dense) (None, 2) 130
=================================================================
Total params: 1,355,938
Trainable params: 1,355,938
Non-trainable params: 0

The last lines are the most interesting. Our CNN has over 1.3 million
trainable parameters. Each of those parameters will be modified by our
training to produce our trained machine-learning program.

The code
The code to implement this TensorFlow training program is brief. Once
…
